digit recognizer/state_dict_model.pt (torch, 823687 bytes, 10 tensors)

linear_relu_stack.0.weight f4 [196, 784]
-0.010755008 0.017178234 0.011889666 0.009336129 -0.0056174435 0.022160351 -0.0039051361 -0.020555913
0.008065965 0.02536001 -0.008165717 -0.0071715415 0.033981856 0.030480238 0.013225627 0.013049237
-0.022437595 -0.029664982 -0.033279795 -0.021487182 -0.02630139 -0.007557014 -0.012034362 0.011120722
0.029444512 -0.0030629933 0.014985103 -0.013609035 -0.006748574 0.017080255 0.011551764 -0.03379988
-0.0035715476 -0.0006975271 0.013100155 -0.034791224 0.017286144 -0.03354249 -0.017159238 0.013280193
0.0063652922 -0.033417556 0.008274607 -0.021497028 -0.029665383 0.03540518 0.010792045 0.025196802
-0.027973333 -0.029522382 -0.023803664 0.0032657026 -0.03507152 0.0122665465 -0.011186795 0.02313428
0.006833881 -0.024835933 0.030893672 0.013525861 0.0054478655 -0.03461369 -0.03535094 -0.009659129
0.012232722 0.009084385 0.009850534 0.0015491503 0.003177189 0.021161495 0.023064576 -0.023992905
-0.015557924 -0.020700991 0.009551564 -0.018337853 0.021401867 0.018268507 -0.008904803 0.01976948
-0.032407805 0.033863395 0.017159194 0.010098223 0.026180137 0.029074293 0.011058001 0.027330685
-0.029005034 -0.014311889 -0.019776791 0.0036138336 0.014113646 -0.024559632 -0.032748275 0.01211506
0.031131616 -0.02503027 0.018591609 0.012512917 -0.01242586 -0.008600537 0.016821539 0.015961524
-0.031454105 -0.0034807646 0.023705212 -0.014501489 -0.034861147 -0.028145252 0.03459626 0.005831357
-0.014218489 0.0037626491 0.031692542 0.0027339978 -0.018812444 0.016348457 -0.03122729 -0.015799392
0.0040654987 0.026303738 -0.019811576 -0.03260776 0.013736955 -0.026799964 -0.025090894 -0.009254918
0.012955308 0.007945994 -0.01677333 -0.020783965 -0.0022728625 -0.028502807 0.009179966 0.011159986
-0.017777493 0.031534497 0.008323743 0.023952242 0.013218522 0.0008749142 -0.0044741547 0.031754605
-0.029116465 -0.009155303 -0.030398725 -0.011836885 0.0040429514 -0.030503094 -0.035676036 0.010917672
0.018289866 0.030451048 -0.0028100868 0.008867577 -0.03808744 -0.011054958 0.0024471798 -0.018242199
0.010559264 -0.0075526037 -0.038756482 0.015124691 0.029631918 -0.026797244 0.02969122 0.02755912
0.0074756965 0.004441013 0.02271341 0.024263324 -0.01423286 -0.02836506 -0.033628404 0.0008037053
-0.0129320705 -0.021873059 0.0018937485 -0.02189644 -0.029663464 0.023161467 0.033834532 0.029009532
-0.021409124 -0.02827051 -0.0066905436 0.00883331 -0.015272734 0.0012904351 0.028144296 -0.0050699976
0.008145852 -0.012235793 0.0049039796 0.0074912133 -0.0061585475 0.017080111 -0.007483478 -0.02722649
0.02456707 0.021344468 -0.0061083133 -0.012758245 -0.013717218 0.015009506 0.023031097 0.027005453
-0.038582023 -0.017312009 0.0054045357 0.0024562618 0.005669145 -0.023493001 0.0077137654 0.0065846057
-0.027262582 -0.030092247 0.011707805 -0.03397539 -0.015998678 -0.015255086 0.005982338 -0.016129812
0.012862155 0.011734343 0.030918922 0.023559056 -0.011598667 -0.010152984 -0.018060436 0.038482014
0.0029524 -0.0011755994 0.001179468 0.025456524 -0.024876637 -0.011777317 -0.008153702 0.027199928
-0.010697425 -0.022073062 -0.011920767 0.020483961 -0.012856708 -0.009485985 0.021926895 -0.007027928
0.0120173395 -0.029539596 0.022714274 -0.035485312 -0.03212874 -0.024621453 -0.015853869 -0.0066368068
00000000: c635 30bc 5eb9 8c3c e0cc 423c 90f6 183c
00000010: 8812 b8bb a089 b53c 50ed 7fbb e064 a8bc
00000020: 1c27 043c ccbf cf3c 80c9 05bc 40ff eabb
00000030: 8f30 0b3d b1b1 f93c 4db0 583c 78cc 553c
00000040: 0ccf b7bc fa03 f3bc 6550 08bd e305 b0bc
00000050: 0376 d7bc d4a0 f7bb c62b 45bc b033 363c
00000060: 9e35 f13c 80bc 48bb 1484 753c 6ef8 5ebc
00000070: 2423 ddbb e4eb 8b3c 9c43 3d3c be71 0abd
00000080: a010 6abb 40da 36ba 08a2 563c 3e81 0ebd
00000090: ac9b 8d3c da63 09bd 8891 8cbc 2b95 593c
000000a0: f193 d03b d9e0 08bd 3892 073c 891a b0bc
000000b0: d104 f3bc 0605 113d 1ed1 303c 8669 ce3c
000000c0: 5528 e5bc ecd8 f1bc e7ff c2bc 6605 563b
000000d0: 27a7 0fbd a0f9 483c d248 37bc 1a84 bd3c
000000e0: c0ee df3b ba74 cbbc ba14 fd3c 939b 5d3c
000000f0: 0284 b23b 16c7 0dbd 26cc 10bd 5341 1ebc
00000100: c16b 483c acd6 143c 2264 213c dc0c cb3a
00000110: 6338 503b df5a ad3c ecf1 bc3c c58c c4bc
00000120: aae6 7ebc 2095 a9bc 2a7e 1c3c 4439 96bc
00000130: f852 af3c d6a7 953c 73e5 11bc 9bf3 a13c
00000140: 0cbe 04bd 58b4 0a3d 7091 8c3c 0473 253c
00000150: ba77 d63c 362d ee3c 9e2c 353c 9ae4 df3c
00000160: f79b edbc 6a7c 6abc f002 a2bc 11d6 6c3b
00000170: ec3c 673c 4831 c9bc 0e23 06bd 3f7e 463c
00000180: bb07 ff3c 480c cdbc 6e4d 983c fa02 4d3c
00000190: d695 4bbc 44e9 0cbc 53cd 893c bec1 823c
000001a0: 05d6 00bd 8a1d 64bb 6f31 c23c a797 6dbc
000001b0: 90ca 0ebd df90 e6bc cfb4 0d3d f814 bf3b
000001c0: aaf4 68bc c796 763b 0ad0 013d df2c 333b
000001d0: 8e1c 9abc 33ed 853c 60d0 ffbc ba6d 81bc
000001e0: e037 853b f07a d73c e34b a2bc b78f 05bd
000001f0: f710 613c 998b dbbc 6b8b cdbc f1a1 17bc
00000200: 8042 543c ea2f 023c 3968 89bc 2243 aabc
00000210: 4ef4 14bb b87e e9bc 9167 163c 60d8 363c
00000220: 1ba2 91bc 512a 013d 4f60 083c 7e37 c43c
00000230: 8092 583c 805a 653a ee9b 92bb 1e11 023d
00000240: a785 eebc 2000 16bc bf06 f9bc 7eef 41bc
00000250: bc7a 843b a0e1 f9bc 0921 12bd 09e0 323c
00000260: a1d4 953c 7a74 f93c 6f29 38bb 5049 113c
00000270: 9301 1cbd db1f 35bc dd60 203b aa70 95bc
00000280: c300 2d3c d57b f7bb 1ebf 1ebd 8dcd 773c
00000290: a3be f23c e585 dbbc 003b f33c aac3 e13c
000002a0: b0f6 f43b eb85 913b 7911 ba3c e1c3 c63c
000002b0: f130 69bc d85d e8bc f0bd 09bd c0af 523a
000002c0: 09e1 53bc 212f b3bc a837 f83a 2a60 b3bc
000002d0: cb00 f3bc 1ebd bd3c 1496 0a3d 66a5 ed3c
000002e0: 3062 afbc 8e97 e7bc 593c dbbb 96b9 103c
000002f0: 7d3a 7abc d123 a93a de8e e63c 3922 a6bb
00000300: 2e76 053c a378 48bc 90b1 a03b da78 f53b
00000310: a4cd c9bb 97eb 8b3c f737 f5bb 170a dfbc
00000320: e140 c93c 98da ae3c 3f28 c8bb f507 51bc
00000330: 2fbe 60bc 6eea 753c b6ab bc3c 8a3a dd3c
00000340: 2f08 1ebd ead1 8dbc 8818 b13b 3cf9 203b
00000350: 3cc4 b93b 6574 c0bc c1c3 fc3b adc3 d73b
00000360: c755 dfbc 0484 f6bc 18d2 3f3c c729 0bbd
00000370: a90f 83bc 78f0 79bc 7d07 c43b ab22 84bc
00000380: cabb 523c 6741 403c ae49 fd3c ecfe c03c
00000390: 5608 3ebc b458 26bc 7bf3 93bc 519f 1d3d
000003a0: 0d7d 413b 9216 9aba 6198 9a3a 338a d03c
000003b0: 17ca cbbc a6f5 40bc 1b97 05bc 62d2 de3c
000003c0: 4144 2fbc 91d2 b4bc 524f 43bc fbcd a73c
000003d0: f1a4 52bc 1b6b 1bbc 08a0 b33c 884a e6bb
000003e0: 60e4 443c 06fd f1bc 4913 ba3c 0c59 11bd
000003f0: 6d99 03bd eeb2 c9bc f9df 81bc 9279 d9bb

linear_relu_stack.0.bias f4 [196]
0.034558654 0.018350903 -0.024347419 -0.020962864 -0.0218058 0.012059162 0.011340263 0.027230607
0.0028018306 0.009649071 -0.009410566 0.017164446 -0.008274485 -0.025921265 0.03273805 0.005245065
-0.027663521 0.0061584506 -0.005950123 -0.01361113 0.030172179 0.02190658 0.00043786675 -0.018029695
-0.0055277804 0.035189625 -0.015665568 0.018395439 -0.034347158 -0.013343314 0.024371753 0.0042916047
-0.027531853 -0.030395368 0.028413977 -0.027715188 0.004796858 0.0049676416 0.0026810695 -0.024806561
-0.026804935 0.0215805 0.011103765 -0.024657765 -0.035102177 0.027226908 0.014349286 -0.033754423
0.0007188099 0.007182472 0.011764161 0.017873837 -0.030992731 0.011704044 -0.0027375014 -0.031436384
0.0030916 -0.0013204203 -0.033721436 -0.004600559 -0.009421121 -0.012327486 -0.031355657 -0.029488727
0.025965944 0.018279174 -0.0024667585 -0.008160705 -0.007518218 -0.035459556 0.029341232 0.016880022
-0.035269886 -0.015827054 -0.015421936 -0.032222785 -0.02579321 0.01261157 -0.013109481 -0.0053082686
0.0014319577 0.022476025 -0.02518607 -0.030169642 -0.023210326 0.013056078 -0.015480169 -0.019906089
0.0036494522 0.020048631 0.025893793 -0.016133329 0.032983564 0.014935676 0.032239843 -0.0007363557
-0.022293447 -0.018248752 0.007921404 -0.021444809 0.0067578624 0.03132537 -0.024706926 -0.009127778
0.013491634 0.012096629 -0.00915459 0.02167529 0.033287197 0.019026738 -0.0021848178 0.014038703
-0.010244021 0.011796949 -0.003648446 0.021903928 -0.005479797 0.003299688 -0.007894319 0.014909568
0.013420932 -0.034543075 -0.03571803 0.013783181 -0.00022417247 -0.02277073 -0.0015135175 -0.032538887
0.027252099 -0.022017524 -0.014319885 0.0023220258 0.014929697 -0.0021528078 -0.014889426 0.0069929985
0.03560695 0.022691619 0.011527201 0.011242641 0.0036693197 0.001684688 -0.017145181 -0.018979624
-0.020844731 -0.02565447 0.012455228 0.0075219707 0.032889478 0.010726154 -0.017976837 0.022415629
-0.020924997 -0.0027470908 -0.026583321 -0.019180397 0.020077918 0.027644157 0.026878342 0.024301223
-0.011733164 0.007415871 0.0167709 0.0130059365 0.033625662 0.022459991 -0.009434162 -0.00887025
0.01023765 -0.0012014002 0.03392636 -0.0011460388 0.03378251 0.022854578 -0.00570789 -0.03117306
0.017609233 -0.0013052761 0.020463664 0.019763777 0.020005008 0.03568068 -0.02762221 -0.008316057
-0.027995873 -0.019797295 -0.0029725265 0.0052259727 0.022276819 -0.014411651 0.003355273 -0.028699154
-0.019870443 -0.006150382 0.010272718 -0.025921622
00000000: 608d 0d3d a254 963c 3d74 c7bc 50ba abbc
00000010: 14a2 b2bc cb93 453c 83cc 393c b912 df3c
00000020: eb9e 373b 2317 1e3c c62e 1abc 749c 8c3c
00000030: b591 07bc d558 d4bc 5518 063d cbde ab3b
00000040: 9c9e e2bc d4cc c93b 40f9 c2bb 3801 5fbc
00000050: a52b f73c 6e75 b33c 7b91 e539 03b3 93bc
00000060: 6222 b5bb ff22 103d 1455 80bc 08b2 963c
00000070: 9baf 0cbd ea9d 5abc 45a7 c73c 97a0 8c3b
00000080: 7b8a e1bc b5ff f8bc 6ec4 e83c f60a e3bc
00000090: f62e 9d3b 99c7 a23b e2b4 2f3b 2137 cbbc
000000a0: 0696 dbbc 97c9 b03c 91ec 353c 15ff c9bc
000000b0: 4dc7 0fbd f70a df3c 4519 6b3c 1442 0abd
000000c0: 846e 3c3a f15a eb3b 78be 403c 276c 923c
000000d0: 78e4 fdbc 52c2 3f3c a767 33bb 70c3 00bd
000000e0: 719c 4a3b f411 adba 7d1f 0abd 49c0 96bb
000000f0: 0c5b 1abc 39f9 49bc ca6e 00bd 5892 f1bc
00000100: 88b6 d43c 35be 953c 57a9 21bb 7ab4 05bc
00000110: 625b f6bb 0a3e 11bd 065d f03c f947 8a3c
00000120: 2877 10bd bda7 81bc 4aac 7cbc 0afc 03bd
00000130: 484c d3bc c2a0 4e3c 26c9 56bc fcf0 adbb
00000140: 87b0 bb3a a41f b83c 0453 cebc 5326 f7bc
00000150: 9523 bebc 29e9 553c 89a0 7dbc 1812 a3bc
00000160: a62b 6f3b 073d a43c 381f d43c 0b2a 84bc
00000170: c619 073d c4b4 743c ed0d 043d ff07 41ba
00000180: bfa0 b6bc 687e 95bc c7c8 013c 06ad afbc
00000190: 0f71 dd3b 084f 003d 2e66 cabc ad8c 15bc
000001a0: 040c 5d3c f030 463c 22fd 15bc 6190 b13c
000001b0: 2858 083d f6dd 9b3c 292f 0fbb 9702 663c
000001c0: 8ad6 27bc fe47 413c c41a 6fbb de6f b33c
000001d0: de8f b3bb 943f 583b 2c57 01bc 4347 743c
000001e0: 78e3 5b3c 0a7d 0dbd 124d 12bd dad2 613c
000001f0: d70f 6bb9 af89 babc 3861 c6ba 7f47 05bd
00000200: cb3f df3c 185e b4bc f39d 6abc 212d 183b
00000210: b09b 743c 1f16 0dbb c7f2 73bc 8625 e53b
00000220: 98d8 113d c6e3 b93c 96dc 3c3c 0e33 383c
00000230: f878 703b c0d0 dc3a 0d74 8cbc 287b 9bbc
00000240: 92c2 aabc 5329 d2bc 0311 4c3c dd7a f63b
00000250: 1eb7 063d c0bc 2f3c 2944 93bc fba0 b73c
00000260: e66a abbc 8908 34bb 44c5 d9bc 3520 9dbc
00000270: 727a a43c 0076 e23c f82f dc3c 5c13 c73c
00000280: 753c 40bc d600 f33b 2063 893c da16 553c
00000290: 10bb 093d 04fe b73c be91 1abc 8654 11bc
000002a0: d1bb 273c 4d78 9dba 5ef6 0a3d ae36 96ba
000002b0: 875f 0a3d 8639 bb3c 4009 bbbb a55e ffbc
000002c0: 3d41 903c cc15 abba 6aa3 a73c a5e7 a13c
000002d0: 8be1 a33c e825 123d f947 e2bc 1240 08bc
000002e0: 9a57 e5bc f02d a2bc b8ce 42bb a33e ab3b
000002f0: e07d b63c d81e 6cbc 24e4 5b3b 7d1a ebbc
00000300: 57c7 a2bc 2589 c9bb e74e 283c 9559 d4bc

linear_relu_stack.2.weight f4 [196, 196]
0.055664685 0.034979157 0.005488456 0.056725282 -0.06573157 -0.03527126 0.032721765 0.02850739
-0.021936221 -0.05640325 0.021759462 -0.035611402 -0.041754954 0.019964647 0.034676183 -0.028943755
-0.0070321993 0.02680558 -0.0077326517 -0.038425878 -0.014817481 -0.05721438 -0.020197386 0.013363467
0.05811785 0.0526915 -0.06898982 -0.06604061 -0.07382234 0.040649496 0.009830479 0.053685393
-0.049168684 -0.056782994 -0.0010482208 -0.05013474 -0.027156828 0.009350042 0.02685943 0.048163388
-0.0033609373 -0.014085149 -0.051928513 -0.030854354 -0.0378539 0.029513415 0.058309723 0.014071613
0.034336064 -0.053082388 -0.0716228 0.06841538 -0.045242704 0.050962497 0.013285219 0.013522264
0.026256472 0.05148603 -0.03783038 0.010131698 0.033482928 -0.0704096 0.008496818 -0.011606841
0.025165921 0.07081076 0.015139814 0.065600045 -0.041719858 -0.063059516 0.014765746 -0.0011293176
0.001569995 0.07180396 0.02027972 -0.0112134665 0.043336917 0.020888826 -0.049074832 -0.0035117033
0.019429926 0.040840425 0.0023824414 -0.05631462 0.0050930385 0.023032252 0.061294843 0.061436832
0.008023616 -0.004758333 0.02854912 0.06840316 0.022477088 -0.022142155 -0.01212078 -0.06285494
-0.06939717 0.0036466504 0.015282239 0.020654684 0.014318387 -0.013732223 0.009465986 0.03925499
-0.00814986 -0.004928673 -0.017972574 -0.060472947 0.06248786 0.032947328 -0.03693473 0.069222346
-0.004620114 0.07030528 -0.032057047 0.018565759 -0.049998045 0.06895175 0.008349388 -0.04554261
-0.028057339 0.06341188 -0.054399855 -0.008311181 0.068345904 -0.013732086 0.046300534 0.0072627994
-0.030431338 0.005475735 0.04877653 -0.022028856 -0.05949972 -0.044635996 0.027307853 0.054832842
0.023373123 -0.059537612 -0.06557794 -0.02075135 0.038725805 -0.05179268 -0.029955853 -0.0026399738
-0.033639368 -0.054229636 0.0030702048 -0.050086986 -0.01390971 0.067040384 -0.019268397 0.063912705
0.05671258 -0.015132838 -0.0018339567 0.010561823 -0.026170202 -0.05476319 -0.0049880776 0.045751654
-0.03458466 -0.05036025 0.036425617 0.03271318 0.021925405 -0.047246452 0.037380606 0.0035340018
0.054736532 -0.0018502217 0.058578327 -0.012979791 0.006199243 -0.033191163 -0.008599153 -0.01261404
0.019069446 -0.034606423 -0.0033566747 0.019143054 -0.03830467 0.05247051 -0.033629484 -0.00039893953
-0.0461383 -0.044193298 -0.043301545 0.01229142 0.027428089 -0.036578156 0.0028810427 -0.025493784
0.037633594 -0.03508158 -0.044560205 0.02820918 0.0009397792 0.017121004 0.061625276 -0.0028391767
-0.009723456 -0.027887266 -0.050457295 0.036983714 0.023314176 0.030856978 -0.06854311 -0.05682597
-0.033352237 -0.01191579 0.030214284 0.03627849 -0.036366183 0.06595206 0.023545487 -0.0035630947
-0.0652683 -0.026866056 0.023175525 -0.062373698 0.03888561 0.052462637 -0.005030303 -0.043321222
-0.02848149 -0.01379531 -0.052608572 0.037670612 0.047359966 -0.04202779 0.022512622 0.054250516
-0.027553534 0.04140015 -0.047965445 0.0200254 0.054024603 -0.0028243882 -0.05133906 0.053570535
0.03467102 -0.07043229 -0.04669582 -0.020936502 0.0019155056 -0.068448745 0.034104045 -0.005854574
0.03670777 0.06906029 0.03474826 0.027314853 -0.060500056 -0.07241222 0.021417331 -0.016760536
00000000: a700 643d 4e46 0f3d 82d8 b33b c558 683d
00000010: 469e 86bd 9978 10bd 4207 063d 5488 e93c
00000020: 97b3 b3bc 1807 67bd e640 b23c 43dd 11bd
00000030: 3e07 2bbd e68c a33c 9d08 0e3d 741b edbc
00000040: 5d6e e6bb 6097 db3c 2f62 fdbb 7464 1dbd
00000050: 05c5 72bc a059 6abd fd74 a5bc 71f2 5a3c
00000060: fc0c 6e3d 0bd3 573d 894a 8dbd 4d40 87bd
00000070: 2b30 97bd 1680 263d 0410 213c 37e5 5b3d
00000080: 1a65 49bd 4995 68bd 7464 89ba 165a 4dbd
00000090: ff77 debc eb30 193c 4f08 dc3c f946 453d
000000a0: 2c43 5cbb 66c5 66bc feb2 54bd 45c2 fcbc
000000b0: b10c 1bbd 1ec6 f13c 2dd6 6e3d 9f8c 663c
000000c0: f9a3 0c3d eb6c 59bd f9ae 92bd 5d1d 8c3d
000000d0: 6a50 39bd 0dbe 503d 3faa 593c 7c8c 5d3c
000000e0: d017 d73c 04e3 523d 07f4 1abd 6cff 253c
000000f0: 6525 093d e932 90bd 3d36 0b3c 9f2a 3ebc
00000100: c328 ce3c 3b05 913d fb0c 783c 5159 863d
00000110: 71e2 2abd 5925 81bd 07ec 713c 9c05 94ba
00000120: 4ac8 cd3a f40d 933d a821 a63c b0b8 37bc
00000130: 0d82 313d 0b1f ab3c b102 49bd 9b24 66bb
00000140: 822b 9f3c 4a48 273d bc22 1c3b 29aa 66bd
00000150: 81e3 a63b 22ae bc3c 4d10 7b3d 30a5 7b3d
00000160: 7c75 033c caeb 9bbb d8df e93c f516 8c3d
00000170: df21 b83c 7763 b5bc 3c96 46bc 17ba 80bd
00000180: 1a20 8ebd a4fc 6e3b 5b62 7a3c 0334 a93c
00000190: ab97 6a3c 1efd 60bc 3917 1b3c d7c9 203d
000001a0: fe86 05bc b580 a1bb 383b 93bc 7bb2 77bd
000001b0: 45f3 7f3d c7f3 063d df48 17bd 72c4 8d3d
000001c0: 5364 97bb 37fc 8f3d 404e 03bd 3817 983c
000001d0: c0ca 4cbd 9336 8d3d dfcb 083c e38a 3abd
000001e0: 81d8 e5bc 16de 813d 62d2 5ebd 9f2b 08bc
000001f0: f0f8 8b3d 8bfc 60bc a1a5 3d3d c7fc ed3b
00000200: 244b f9bc cb6d b33b e6c9 473d dc75 b4bc
00000210: fab5 73bd 3cd4 36bd b8b4 df3c 6798 603d
00000220: fe78 bf3c b6dd 73bd ba4d 86bd bcfe a9bc
00000230: f39e 1e3d 9024 54bd fa65 f5bc 6903 2dbb
00000240: 6fc9 09bd e51f 5ebd 7d35 493b 0328 4dbd
00000250: 8de5 63bc 784c 893d c2d8 9dbc aae4 823d
00000260: 734b 683d b9ef 77bc 6061 f0ba 7f0b 2d3c
00000270: e462 d6bc 5e4f 60bd 0773 a3bb 1666 3b3d
00000280: a5a8 0dbd 8d46 4ebd 0733 153d 41fe 053d
00000290: e89c b33c 7f85 41bd 681c 193d b69a 673b
000002a0: 6a33 603d 2383 f2ba d4ef 6f3d 30a9 54bc
000002b0: 0523 cb3b 75f3 07bd 76e3 0cbc 1eab 4ebc
000002c0: 8737 9c3c 77bf 0dbd a8fb 5bbb e5d1 9c3c
000002d0: 5ce5 1cbd 51eb 563d 12bf 09bd c228 d1b9
000002e0: 84fb 3cbd 0804 35bd f65c 31bd f461 493c
000002f0: dfb0 e03c fad2 15bd e0cf 3c3b 57d8 d0bc
00000300: af25 1a3d b4b1 0fbd c384 36bd f016 e73c
00000310: 845b 763a 5941 8c3c c96a 7c3d 7b11 3abb
00000320: 214f 1fbc d673 e4bc 4fac 4ebd 3c7c 173d
00000330: 5ffd be3c c6c7 fc3c 5460 8cbd 59c2 68bd
00000340: 5b9c 08bd 723a 43bc f283 f73c c198 143d
00000350: b5f4 14bd e011 873d 77e2 c03c cf82 69bb
00000360: 63ab 85bd 3416 dcbc 99da bd3c 907b 7fbd
00000370: 8446 1f3d 10e3 563d 3dd5 a4bb 9871 31bd
00000380: 0452 e9bc b905 62bc 167c 57bd 804c 1a3d
00000390: 86fc 413d 5525 2cbd 646c b83c ca35 5e3d
000003a0: f3b7 e1bc 3493 293d 6a77 44bd 4f0c a43c
000003b0: e748 5d3d 5f19 39bb e848 52bd c76c 5b3d
000003c0: 3303 0e3d ce3e 90bd 1e44 3fbd 0783 abbc
000003d0: b411 fb3a db2e 8cbd afb0 0b3d bad7 bfbb
000003e0: e35a 163d 7b6f 8d3d 3154 0e3d 66c3 df3c
000003f0: e8ce 77bd dc4c 94bd 6673 af3c 644d 89bc

linear_relu_stack.2.bias f4 [196]
-0.054545455 0.040364802 0.0072830017 -0.055284705 -0.013381459 0.0012975353 0.019447558 -0.008334946
0.02382483 -0.028582133 0.024485381 0.048224892 -0.021124993 0.03867189 0.06657421 -0.03516992
0.027563678 -0.052788273 -0.027019184 0.037498035 0.06702306 0.047184095 -0.044991363 0.05123167
0.00659347 -0.019049551 -0.021319825 -0.06569939 0.042224664 0.018825915 -0.0325739 0.051053654
-0.055289637 -0.0002462913 -0.000912735 -0.012710548 -0.03486613 -0.0060307225 0.007876076 -0.027750317
-0.06873618 0.011540224 -0.049898397 0.005634836 -0.025936479 -0.05565713 0.003525 0.005707425
0.06854961 0.01999625 -0.02253698 -0.052854203 0.040234625 0.016088642 0.05812247 0.021835607
0.06555065 0.03076316 0.030014364 0.00012348748 0.041931827 -0.02225139 0.016805157 0.020455834
-0.01718061 0.025261294 -0.0049518757 0.06521286 0.036179706 0.0016579073 -0.01074564 0.028902872
-0.004713941 0.01813334 0.047365807 0.040779512 0.053912535 0.030043209 -0.01173265 -0.062783636
-0.0011598982 -0.0014644128 -0.03162362 -0.061070357 0.06710102 -0.053180557 -0.007642779 0.0609229
-0.032188427 -0.061981518 0.033066384 0.007948273 0.045176063 -0.006099165 -0.052981716 -0.06104922
-0.011920811 -0.03239697 0.007933001 0.030749137 0.024250176 0.042161893 -0.04315061 -0.05395972
0.018795323 0.042358566 0.029123148 0.048356626 0.0014141094 0.038466062 0.067425415 0.053960837
-0.035239268 0.028035715 0.047902226 -0.07104876 -0.04707873 -0.007509627 -0.0026991796 0.06684691
-0.06763915 -0.054565713 0.06528796 0.020598756 0.056774396 0.011174039 -0.020018151 -0.0394769
0.040581092 0.009072333 0.016143622 -0.019710558 0.07132316 0.019451376 -0.0028778503 -0.057250943
0.037739486 -0.04344825 0.0083759595 0.0656246 -0.0002605584 -0.056712825 0.025463825 0.04003749
-0.06513027 0.058383938 -0.051080044 -0.029012848 -0.050248962 0.03999731 0.05233852 -0.010107517
0.067977384 -0.052710272 -0.03722005 0.0637894 -0.05323441 0.046272878 -0.03733615 0.051595856
0.011735886 -0.044493698 -0.06576202 -0.030341767 0.013852903 -0.05874961 0.03512046 0.069763765
-0.016761865 -0.013923627 0.025804587 -0.048427805 0.06576339 -0.0670791 0.02595972 0.019398704
-0.009146969 0.002021057 -0.012506372 -0.0018811828 -0.03815618 -0.025012774 -0.06643706 0.036084775
-0.02820762 -0.047244634 0.016045894 0.001022414 -0.07012369 0.015432705 0.058709394 -0.03996095
-0.06964066 -0.03509578 -0.057397228 0.0353376
00000000: 0e6b 5fbd 9055 253d 3fa6 ee3b 3772 62bd
00000010: e83d 5bbc 0f12 aa3a 7c50 9f3c 4c8f 08bc
00000020: 4a2c c33c 1425 eabc 9195 c83c 7787 453d
00000030: 520e adbc 6a66 1e3d 0f58 883d 560e 10bd
00000040: 39cd e13c 8438 58bd 5657 ddbc 8a97 193d
00000050: 6343 893d 1c44 413d dd48 38bd 4dd8 513d
00000060: 090e d83b ce0d 9cbc eaa6 aebc 678d 86bd
00000070: c5f3 2c3d ce38 9a3c 366c 05bd a31d 513d
00000080: 6377 62bd a920 81b9 9c44 6fba e73f 50bc
00000090: cacf 0ebd 5e9d c5bb a80a 013c a254 e3bc
000000a0: 8ec5 8cbd 3513 3d3c 4362 4cbd 6ea4 b83b
000000b0: bd78 d4bc bbf8 63bd b003 673b 5a05 bb3b
000000c0: bd63 8c3d 2dcf a33c 799f b8bc a67d 58bd
000000d0: 10cd 243d 54cc 833c d411 6e3d 96e0 b23c
000000e0: 6b3f 863d 0603 fc3c afe0 f53c 6b7c 0139
000000f0: b5c0 2b3d 8c48 b6bc f8aa 893c fe92 a73c
00000100: 5abe 8cbc c6f0 ce3c 5843 a2bb 528e 853d
00000110: 2c31 143d 234e d93a 7b0e 30bc b7c5 ec3c
00000120: 6777 9abb 5f8c 943c a602 423d 6b08 273d
00000130: 64d3 5c3d 2d1d f63c 4d3a 40bc b594 80bd
00000140: ba07 98ba 8af1 bfba c587 01bd e924 7abd
00000150: 426c 893d dbd3 59bd 4770 fabb 4a8a 793d
00000160: 03d8 03bd 55e0 7dbd 9e70 073d 7939 023c
00000170: 890a 393d 81db c7bb 5b03 59bd bf0e 7abd
00000180: 814f 43bc afb2 04bd 6bf9 013c 9de5 fb3c
00000190: 4ea8 c63c f3b1 2c3d b2be 30bd de04 5dbd
000001a0: a6f8 993c 2d80 2d3d ab93 ee3c 9911 463d
000001b0: a359 b93a 978e 1d3d 5616 8a3d 0a06 5d3d
000001c0: 0d57 10bd 28ab e53c 2035 443d 0382 91bd
000001d0: a0d5 40bd 5113 f6bb b8e4 30bb 08e7 883d
000001e0: 6586 8abd 4c80 5fbd b2b5 853d b9be a83c
000001f0: 458c 683d 5113 373c 1bfd a3bc 88b2 21bd
00000200: 5c38 263d 1fa4 143c a13f 843c 0978 a1bc
00000210: e011 923d 7e58 9f3c 519a 3cbb f77f 6abd
00000220: b894 1a3d cbf6 31bd 523b 093c 3166 863d
00000230: 8e9b 88b9 b54b 68bd 8399 d03c 5afe 233d
00000240: 0563 85bd ff23 6f3d 4f39 51bd 5aac edbc
00000250: dbd1 4dbd 38d4 233d ea60 563d 009a 25bc
00000260: ba37 8b3d bae6 57bd 0d74 18bd 04a4 823d
00000270: 530c 5abd a188 3d3d caed 18bd 2d56 533d
00000280: e047 403c 063f 36bd 3dae 86bd 4c8f f8bc
00000290: 49f7 623c 6ea3 70bd 79da 0f3d 4ee0 8e3d
000002a0: 2e50 89bc ed1f 64bc 2464 d33c 3c5c 46bd
000002b0: f5ae 863d c460 89bd 7ba9 d43c 08ea 9e3c
000002c0: 2bdd 15bc b673 043b 87e7 4cbc 0592 f6ba
000002d0: a849 1cbd 97e7 ccbc 2710 88bd a1cd 133d
000002e0: ab13 e7bc 9783 41bd ae72 833c 8502 863a
000002f0: 029d 8fbd 75d9 7c3c 4379 703d 18ae 23bd
00000300: c39f 8ebd 98c0 0fbd 5b19 6bbd 29be 103d

linear_relu_stack.4.weight f4 [49, 196]
0.025098644 -0.049117837 0.03638762 -0.03967895 0.05051092 -0.03932598 -0.018520104 0.012755335
-0.028641203 0.03467992 -0.008326846 0.016968591 -0.07243625 -0.0075697796 -0.015648685 0.019069921
-0.013077151 -0.05121236 0.03517365 -0.06057272 -0.027233245 0.082928635 0.0020530848 0.061374974
-0.05606002 -0.040869083 -0.0026027355 0.07920761 -0.023043724 -0.022677736 -0.06802511 0.0043703048
0.01620747 0.026077364 -0.05478431 0.08027419 -0.022411563 -0.0014149754 -0.041317824 -0.00955402
0.07031548 0.027034298 -0.026390603 0.06283906 0.0007450883 0.040233713 -0.05498 0.040145103
0.013500471 -0.026110988 -0.016840193 -0.013248715 0.06582401 0.026603159 0.05207252 0.05404582
0.04811456 0.06872241 -0.022917258 0.0512318 -0.0383003 -0.05916296 0.0055830777 0.07981892
0.055622406 -0.046995427 0.011394012 -0.018552091 0.011293466 -0.07231308 0.0027990672 -0.04994949
0.0025881664 -0.059338786 -0.038527723 -0.018266685 -0.03346571 -0.031835165 0.046538807 0.015654668
-0.047447257 0.018361062 0.059786662 -0.05966731 -0.037024256 0.03169523 -0.074073195 -0.003660533
-0.002725024 0.0009687704 0.011344548 0.06967284 0.05205932 0.029695686 -0.06309937 0.015986085
0.037912842 0.016856551 0.0683991 0.064522065 -0.041399192 0.012510831 0.04762782 -0.044804215
0.0031463325 0.0017275107 0.063838065 0.056325983 -0.030687299 0.013917748 -0.06524296 -0.028038193
0.04404276 0.0153223965 0.037468582 -0.07353112 0.018003106 -0.021585714 -0.052200157 0.056104954
-0.054689255 -0.013683707 0.02935199 -0.023743458 -0.007945579 0.046703342 0.039116766 0.011384943
0.04170288 0.04316711 0.025702983 0.060886316 0.042062562 0.028863803 -0.029036827 0.0095862
0.00751433 -0.04726538 -0.06440703 -0.049465798 0.046183858 -0.0586929 0.006681298 -0.06767866
0.049802866 0.017922197 0.046701785 -0.035901506 0.0020590115 0.05364559 0.017101027 0.0454125
-0.027547002 -0.05979906 -0.029225826 -0.003830282 0.06864731 -0.054689687 0.015808092 0.033734344
-0.08135743 -0.06410007 -0.02364387 0.03745952 0.014170993 0.040328912 0.029596295 -0.0064367964
0.031359505 -0.061714943 -0.034249473 0.007013809 0.016389297 0.040587682 -0.0030964543 0.008547408
0.053939424 -0.012620331 0.021857737 -0.07360069 -0.0686269 0.019440968 -0.03439643 -0.049021386
-0.07750594 -0.050984688 -0.068702824 -0.031654354 -0.0002520465 0.06405674 0.0029393828 -0.0077501996
-0.008045334 -0.06347368 -0.019594189 -0.004026868 0.052154772 -0.06957355 -0.05682008 0.058805473
-0.028474504 -0.019436214 -0.01513497 -0.058423918 -0.029916707 0.03641864 0.019064778 -0.036341026
-0.050527483 0.006207985 -0.06332831 -0.040969335 -0.039458826 -0.032913335 0.063440986 0.028381381
0.03984352 0.02988445 0.041989665 0.07078481 0.06827966 0.056065533 0.06330952 -0.024638105
0.038600143 -0.029478256 0.009339409 0.001523609 0.0055444124 -0.015762717 -0.037676163 0.06427878
-0.06799728 -0.05811896 -0.024668487 -0.033259254 -0.039266944 -0.047723148 -0.023175953 -0.05571595
0.0024324034 0.049448654 0.029037941 -0.009354985 -0.03242243 -0.055503324 0.04974548 0.036018696
0.042834356 -0.014234134 0.023298068 -0.05062609 -0.03456655 0.048566494 0.02436349 -0.000716543
00000000: ac9b cd3c c92f 49bd 2f0b 153d 6586 22bd
00000010: 8ae4 4e3d 4714 21bd 79b7 97bc c1fb 503c
00000020: f5a0 eabc 880c 0e3d 536d 08bc b701 8b3c
00000030: 7559 94bd ea0b f8bb ac31 80bc 8638 9c3c
00000040: 8c41 56bc 0dc4 51bd 3f12 103d 1a1b 78bd
00000050: 4118 dfbc 7dd6 a93d 0c8d 063b 5364 7b3d
00000060: 319f 65bd 5766 27bd a892 2abb 9937 a23d
00000070: 31c6 bcbc a9c6 b9bc c050 8bbd c634 8f3b
00000080: 87c5 843c 32a0 d53c 8365 60bd cb66 a43d
00000090: 7498 b7bc b276 b9ba e13c 29bd 7788 1cbc
000000a0: 9001 903d 0877 dd3c 1b31 d8bc c4b1 803d
000000b0: 0852 433a 1bcc 243d b532 61bd 316f 243d
000000c0: 1431 5d3c b6e6 d5bc 72f4 89bc 2311 59bc
000000d0: bdce 863d deee d93c ff49 553d 265f 5d3d
000000e0: c613 453d 56be 8c3d f9bc bbbc 70d8 513d
000000f0: c6e0 1cbd dc54 72bd 40f2 b63b 1a78 a33d
00000100: 52d4 633d 477e 40bd f3ad 3a3c 8efa 97bc
00000110: 3b08 393c e118 94bd 8e70 373b d697 4cbd
00000120: 3a9e 293b 3a0d 73bd 3fcf 1dbd 04a4 95bc
00000130: 5713 09bd 9765 02bd 7a9f 3e3d 383e 803c
00000140: 0e58 42bd f069 963c dce2 743d b665 74bd
00000150: bfa6 17bd dcd2 013d b0b3 97bd 8ee5 6fbb
00000160: 5196 32bb 15f5 7d3a 7cde 393c a2b0 8e3d
00000170: 273c 553d 5e44 f33c 3e3a 81bd 40f5 823c
00000180: 7f4a 1b3d c016 8a3c d414 8c3d 2524 843d
00000190: 3392 29bd 3afa 4c3c 6415 433d a084 37bd
000001a0: b332 4e3b a46d e23a 88bd 823d 13b6 663d
000001b0: ee63 fbbc 4407 643c 1a9e 85bd 5ab0 e5bc
000001c0: 2e66 343d ca0a 7b3c a878 193d 7c97 96bd
000001d0: 407b 933c 86d4 b0bc d5cf 55bd 4fce 653d
000001e0: d701 60bd a131 60bc 9673 f03c a481 c2bc
000001f0: 2c2e 02bc 014c 3f3d e738 203d e987 3a3c
00000200: a4d0 2a3d ffcf 303d 108f d23c ee63 793d
00000210: cb49 2c3d c873 ec3c a4de edbc 700f 1d3c
00000220: c53a f63b 5899 41bd d5e7 83bd a69c 4abd
00000230: 492b 3d3d f767 70bd caee da3b 1c9b 8abd
00000240: 17fe 4b3d 92d1 923c 5f4a 3f3d 750d 13bd
00000250: 7bf0 063b 7abb 5b3d 7417 8c3c 7502 3a3d
00000260: 40aa e1bc dcef 74bd 006b efbc 7805 7bbb
00000270: f696 8c3d 4b02 60bd f97f 813c 062d 0a3d
00000280: b99e a6bd e646 83bd cab0 c1bc 276f 193d
00000290: 742d 683c ee2f 253d ee73 f23c c3eb d2bb
000002a0: d372 003d cfc8 7cbd 2d49 0cbd 18d4 e53b
000002b0: d942 863c 453f 263d e2ed 4abb 6d0a 0c3c
000002c0: 96ef 5c3d 81c5 4ebc ff0e b33c f5bb 96bd
000002d0: 438c 8cbd aa42 9f3c 45e3 0cbd a6ca 48bd
000002e0: 6fbb 9ebd 52d5 50bd 11b4 8cbd ffa7 01bd
000002f0: 1c25 84b9 2e30 833d a9a2 403b 63f5 fdbb
00000300: 94d0 03bc 7dfe 81bd fe83 a0bc d1f3 83bb
00000310: 3ea0 553d 947c 8ebd 2cbc 68bd 02de 703d
00000320: 5d43 e9bc b238 9fbc aaf8 77bc eb4d 6fbd
00000330: e213 f5bc b62b 153d bd2d 9c3c 54da 14bd
00000340: e8f5 4ebd 5a6c cb3b 46b2 81bd 76cf 27bd
00000350: 949f 21bd 22d0 06bd 59ed 813d 1280 e83c
00000360: f532 233d 3cd0 f43c 5bfd 2b3d a0f7 903d
00000370: 35d6 8b3d f9a4 653d 6ca8 813d dad5 c9bc
00000380: 2f1b 1e3d 627c f1bc 5204 193c d6b3 c73a
00000390: e7ad b53b d020 81bc 5252 1abd 98a4 833d
000003a0: 2842 8bbd 260e 6ebd 9115 cabc db3a 08bd
000003b0: 60d6 20bd 5979 43bd 7fdb bdbc 6836 64bd
000003c0: f568 1f3b ac8a 4a3d fae0 ed3c a745 19bc
000003d0: 62cd 04bd 7457 63bd ebc1 4b3d 5788 133d
000003e0: 1473 2f3d 4936 69bc 97db be3c 4e5d 4fbd
000003f0: a895 0dbd a9ed 463d f195 c73c 63d6 3bba

linear_relu_stack.4.bias f4 [49]
-0.04215747 0.00780386 0.049986087 0.069090895 0.03432353 -0.02812846 0.011581701 -0.06962175
0.009777421 -0.06810973 0.0135917375 0.06446026 0.0454934 -0.045317207 0.06233539 -0.036214236
-0.008998377 -0.047700625 0.0271461 0.05355175 0.01920134 0.025051923 -0.010298817 -0.058786113
-0.06586815 0.014632362 -0.011269502 0.012484893 0.025597947 -0.05258958 -0.047629878 0.065645136
0.007087571 -0.059097707 -0.010647414 -0.04523463 0.014080591 0.027554477 -0.008278867 0.013146666
0.012798641 -0.04765397 -0.06360336 0.027973333 0.020079855 0.06603121 0.055964258 -0.014364842
0.047373816
00000000: 50ad 2cbd 86b7 ff3b 36be 4c3d 877f 8d3d
00000010: d496 0c3d a86d e6bc 2dc1 3d3c d995 8ebd
00000020: 7a31 203c 1d7d 8bbd e1af 5e3c be03 843d
00000030: 4a57 3a3d 899e 39bd 6553 7f3d 6155 14bd
00000040: ee6d 13bc bb61 43bd 7f61 de3c 1459 5b3d
00000050: 214c 9d3c b139 cd3c 5fbc 28bc b5c9 70bd
00000060: e1e5 86bd 93bc 6f3c b8a3 38bc 708d 4c3c
00000070: c9b2 d13c 2c68 57bd 8c17 43bd f570 863d
00000080: db3e e83b 7010 72bd 7e72 2ebc f347 39bd
00000090: 47b2 663c edb9 e13c 16a4 07bc 1d65 573c
000000a0: 64b1 513c cf30 43bd 7a42 82bd 5528 e53c
000000b0: 827e a43c 5f3b 873d c73a 653d 845a 6bbc
000000c0: 0c0b 423d

linear_relu_stack.6.weight f4 [49, 49]
-0.13132787 -0.09934832 0.054577142 0.12042515 0.0063246773 -0.02788585 0.07986253 -0.017109355
0.047404036 0.026302487 -0.1344798 -0.10124398 -0.07915671 -0.0651985 -0.05881603 0.052418135
-0.063566044 0.07378416 0.05889476 0.14114785 0.022893531 0.02017362 -0.13942009 -0.0132738175
-0.057066984 0.13213032 -0.109627664 0.14450358 0.13809825 0.036429204 -0.014548345 -0.038319003
0.09279371 -0.1064128 -0.077161886 0.09565259 -0.10715795 0.082279705 -0.11842766 -0.1406018
-0.013822926 0.1291826 0.03708639 0.044411678 0.013128175 0.100667045 0.0969869 -0.0219342
-0.041205302 -0.10219769 -0.10858691 -0.033771895 0.059480324 -0.0854329 0.10840461 -0.03950746
-0.15295821 -0.024613934 0.09355531 -0.015256978 -0.03309092 0.06238831 0.11612578 -0.014173573
0.023832586 -0.022883259 -0.018437885 -0.029680531 0.07615291 0.08926853 0.10763931 0.08210624
0.051737238 0.14883304 -0.13595304 -0.13563433 -0.14090888 0.13239056 0.122970976 -0.04940421
0.03130968 -0.011725654 -0.013491208 0.11416354 0.0451117 -0.116521 -0.051980034 0.067773
0.1503539 -0.11846789 -0.1426068 0.126829 0.03655797 -0.12633108 -0.09538255 -0.017229171
0.03964033 0.04761877 -0.14860621 -0.08951856 -0.022839969 0.0914252 0.114272475 0.06957547
-0.09724457 0.082164764 0.020369356 0.03498171 0.12406941 0.17047387 -0.06080049 -0.027508494
0.021335173 -0.05741529 -0.09908783 -0.1090703 -0.0026056056 0.09908164 0.10464806 -0.08598254
0.07890697 -0.048117653 -0.14875415 0.08874148 0.12798956 0.12897553 0.07164127 -0.05066873
-0.07599822 0.06776347 -0.13822344 0.100269325 -0.05857131 0.11100602 0.0982472 0.12884027
0.014550054 0.116219714 0.10434248 0.11641495 -0.010761214 0.112712204 -0.14465389 -0.14201383
0.07699051 0.031764865 0.052025553 -0.13300364 0.004202201 -0.14109708 0.052861597 -0.10482639
0.025413115 -0.0063762744 0.09118432 0.08046249 0.02209534 -0.11360974 0.06307916 -0.05818299
-0.026787827 -0.0018570519 -0.10793898 -0.095364764 -0.009296948 0.069609396 0.0076402854 -0.117764525
0.09313377 0.118484445 -0.016845854 -0.1225894 0.08001423 0.01799058 0.08225524 0.12207804
-0.005672413 -0.09011512 0.136924 -0.08448983 0.029806985 0.12513159 -0.12368232 0.02034118
0.090863466 -0.08211093 -0.09409009 -0.07190124 0.12827939 0.012771841 0.0671852 -0.1423057
0.04415059 -0.13469598 0.1383238 0.036464352 -0.0033914456 0.084855646 0.13517016 0.11823178
-0.14222296 0.08025228 -0.08646564 -0.10762108 0.09984219 0.026161043 -0.12107638 0.027262205
0.089740805 0.15226245 -0.075823255 0.08126065 -0.016638597 0.042511474 0.034689102 -0.10752327
-0.03928073 -0.057907432 0.13710381 -0.0036693064 0.13116384 0.0016758788 -0.13425465 -0.0029936286
-0.005935518 -0.022163749 0.086429395 -0.014015271 0.092515714 -0.09250721 -0.039259218 -0.005650894
0.04847366 -0.110425025 0.14156485 -0.09285521 -0.09840774 -0.096415095 0.112218596 0.12076359
-0.11637929 -0.010367639 0.031149229 -9.394041e-05 0.020464983 0.0629092 -0.1148216 -0.009097387
0.060258593 0.12131648 -0.06000414 0.05897215 -0.07863467 0.14111264 0.11549823 0.021158582
00000000: d07a 06be 2277 cbbd 488c 5f3d 76a1 f63d
00000010: 3d3f cf3b de70 e4bc f78e a33d eb28 8cbc
00000020: bc2a 423d 5078 d73c 13b5 09be 0159 cfbd
00000030: ea1c a2bd cb86 85bd 14e9 70bd 66b4 563d
00000040: ea2e 82bd 261c 973d a23b 713d 1089 103e
00000050: 378b bb3c 2643 a53c 24c4 0ebe 6d7a 59bc
00000060: 12bf 69bd 2c4d 073e 7884 e0bd bff8 133e
00000070: a169 0d3e ca36 153d 2e5c 6ebc 63f4 1cbd
00000080: a10a be3d f4ee d9bd 0d07 9ebd 81e5 c33d
00000090: a175 dbbd 4382 a83d 338a f2bd ebf9 0fbe
000000a0: 8e79 62bc 7248 043e e6e7 173d 05e9 353d
000000b0: 8f17 573c 862a ce3d 11a1 c63d 5aaf b3bc
000000c0: e4c6 28bd 064d d1bd d062 debd 6654 0abd
000000d0: a4a1 733d 72f7 aebd 3c03 de3d 93d2 21bd
000000e0: 14a1 1cbe 29a3 c9bc ed99 bf3d 67f8 79bc
000000f0: 588a 07bd e28a 7f3d 5ad3 ed3d 4638 68bc
00000100: 8e3c c33c ac75 bbbc 0c0b 97bc 9624 f3bc
00000110: 0ff6 9b3d 6bd2 b63d 0072 dc3d 5127 a83d
00000120: 6dea 533d b067 183e 4637 0bbe bae3 0abe
00000130: 6b4a 10be 6491 073e 35d8 fb3d 125c 4abd
00000140: 943e 003d f51c 40bc 3a0a 5dbc 93ce e93d
00000150: 0cc7 383d 90a2 eebd 04e9 54bd 92cc 8a3d
00000160: 5ff6 193e 4b9f f2bd 8407 12be 76df 013e
00000170: cfbd 153d ef5c 01be ed57 c3bd 3124 8dbc
00000180: e65d 223d e60b 433d 3a2c 18be 8255 b7bd
00000190: e31a bbbc 233d bb3d b007 ea3d 967d 8e3d
000001a0: 2928 c7bd 0046 a83d a3dd a63c fb48 0f3d
000001b0: 1a18 fe3d b490 2e3e ef09 79bd 7e59 e1bc
000001c0: 1ac7 ae3c 4c2c 6bbd 8fee cabd 4060 dfbd
000001d0: cfc2 2abb 51eb ca3d b951 d63d 9d17 b0bd
000001e0: fa99 a13d 0417 45bd 0253 18be 18be b53d
000001f0: b20f 033e 2912 043e a8b8 923d 048a 4fbd
00000200: f4a4 9bbd 93c7 8a3d 728a 0dbe 015a cd3d
00000210: 78e8 6fbd 2057 e33d d435 c93d b4ee 033e
00000220: 5a63 6e3c 9a04 ee3d 83b1 d53d f66a ee3d
00000230: ce4f 30bc a8d5 e63d 2620 14be 136c 11be
00000240: 33ad 9d3d e01b 023d bf18 553d 1b32 08be
00000250: 9eb2 893b c17b 10be 6785 583d 38af d6bd
00000260: 2a2f d03c 11f0 d0bb d8be ba3d 85c9 a43d
00000270: 4901 b53c 39ac e8bd a62f 813d 4951 6ebd
00000280: 2572 dbbc 5268 f3ba 1d0f ddbd 9a4e c3bd
00000290: 3a52 18bc 5f8f 8e3d 5c5b fa3b 872e f1bd
000002a0: ebbc be3d f9a7 f23d 5100 8abc 2710 fbbd
000002b0: 80de a33d fb60 933c 6f75 a83d 0d04 fa3d
000002c0: a6df b9bb 478e b8bd ce35 0c3e 0109 adbd
000002d0: c72d f43c 7f22 003e 284d fdbd 8ca2 a63c
000002e0: a016 ba3d c629 a8bd 4eb2 c0bd f540 93bd
000002f0: ac5b 033e fc40 513c 6598 893d 96b8 11be
00000300: 40d7 343d beed 09be c1a4 0d3e a55b 153d
00000310: 0443 5ebb ccc8 ad3d 0c6a 0a3e 8123 f23d
00000320: e5a2 11be 4f5b a43d e614 b1bd 7168 dcbd
00000330: 107a cc3d af4f d63c e5f6 f7bd fd54 df3c
00000340: 07ca b73d b0ea 1b3e 3949 9bbd fc6b a63d
00000350: ab4d 88bc 8320 2e3d 2916 0e3d 2935 dcbd
00000360: d5e4 20bd 5830 6dbd f164 0c3e bf78 70bb
00000370: d04f 063e 29a9 db3a 0d7a 09be c130 44bb
00000380: bc7e c2bb c090 b5bc e501 b13d 4fa0 65bc
00000390: e178 bd3d 6c74 bdbd 46ce 20bd 222b b9bb
000003a0: 518c 463d 8426 e2bd 60f6 103e df2a bebd
000003b0: ff89 c9bd 4775 c5bd ddd2 e53d e752 f73d
000003c0: 4458 eebd 08dd 29bc ab2c ff3c e001 c5b8
000003d0: 2ea6 a73c 8ad6 803d 9627 ebbd 350d 15bc
000003e0: b7d1 763d c674 f83d e7c6 75bd c88c 713d
000003f0: 370b a1bd d57f 103e 568a ec3d c354 ad3c

linear_relu_stack.6.bias f4 [49]
0.0741636 -0.12504004 0.1344638 -0.064450435 -0.021271674 -0.08117052 0.110462874 -0.13341115
0.029277364 -0.059872188 -0.1022406 -0.06840893 -0.109312475 0.12990959 0.0024931002 0.11386985
-0.06168892 0.045456767 0.03758552 -0.05631914 0.084434465 -0.12848268 -0.01926749 -0.13863298
-0.0761842 -0.09266484 0.06961886 -0.13878296 0.06205167 0.13424999 -0.08751623 0.010260925
0.051534064 0.013698705 -0.09783992 -0.09644764 -0.0016479376 -0.014960618 0.1090736 -0.040750664
0.12855414 -0.05767578 0.031297628 -0.13207804 -0.1062282 -0.13418907 -0.10140302 -0.1401571
0.10791653
00000000: 16e3 973d 7f0a 00be e1b0 093e 97fe 83bd
00000010: ef41 aebc bb3c a6bd 5c3a e23d ef9c 08be
00000020: 15d7 ef3c 8a3c 75bd 8563 d1bd fb19 8cbd
00000030: 38df dfbd 0507 053e 4863 233b 9934 e93d
00000040: 85ad 7cbd e030 3a3d 46f3 193d e6ae 66bd
00000050: faeb ac3d f790 03be dbd6 9dbc cef5 0dbe
00000060: 7606 9cbd 10c7 bdbd 5594 8e3d 1f1d 0ebe
00000070: e429 7e3d d478 093e b63b b3bd 701d 283c
00000080: 6215 533d 8870 603c 4c60 c8bd 5786 c5bd
00000090: 9cff d7ba 611d 75bc fb61 df3d 2bea 26bd
000000a0: b2a3 033e 703d 6cbd f131 003d 773f 07be
000000b0: 2c8e d9bd dc68 09be 63ac cfbd 5885 0fbe
000000c0: 5703 dd3d

linear_relu_stack.8.weight f4 [10, 49]
-0.050820734 -0.109823294 -0.011730023 -0.07305889 -0.10179074 -0.057627838 -0.051143233 0.13512851
-0.017988937 -0.086379044 -0.11413003 -0.08958462 -0.114764236 -0.12328986 0.04552301 -0.025805024
0.12165269 0.002236098 0.032493193 0.10752083 0.08949793 0.053089138 0.021706568 0.034598242
-0.053018656 0.076887295 0.11093644 -0.022271223 -0.048426777 0.05013727 0.05275423 -0.12065033
-0.113768116 -0.14210165 -0.008070537 0.015369543 -0.12572618 -0.011244131 -0.03736932 -0.08806595
0.061537426 0.106655575 0.04379924 -0.10768579 -0.0049978998 0.07470294 -0.086204045 0.019847423
0.119507015 0.09432828 -0.090264 -0.10273036 0.03646718 0.03214985 -0.015980415 0.10377765
0.14440057 0.059913553 0.0440335 0.0028461865 -0.10074281 0.12890305 -0.025600461 -0.10327399
-0.033627465 0.07079605 0.13052833 -0.046441525 0.07058687 -0.066361934 -0.096320935 0.110788204
-0.13362154 0.08455503 -0.033982918 0.14154471 0.14755982 0.12085853 0.092971936 -0.07423396
-0.054487407 0.085096754 -0.13997817 0.024492586 0.07696938 0.043952007 0.0069929915 0.07337809
-0.11809489 0.1312401 -0.0017884151 0.0688189 -0.18803646 -0.14447899 0.12095488 -0.04649527
0.05419926 0.12029326 -0.10643513 -0.13642997 0.10264948 0.08606677 -0.12596507 -0.027858274
-0.099104755 -0.091481395 0.06313229 0.17707452 -0.09486208 0.0034663856 0.12243288 -0.12143861
0.11705183 -0.0027843511 -0.0403513 0.03811451 -0.04060023 0.07514655 -0.105082825 -0.057677593
-0.13654438 -0.1054287 0.05071017 -0.14066 -0.08892394 -0.11277856 0.13586576 -0.03027169
-0.10993878 0.11337393 0.09168384 -0.06430672 0.06653407 -0.106052674 0.18864475 0.05057241
-0.09116607 0.023609057 -0.1055806 -0.07170791 -0.12236773 0.007128051 -0.12195396 -0.06611912
-0.13291143 0.05455679 0.060050756 -0.10666728 0.078177564 0.087799676 0.13238956 -0.0895529
-0.031240715 -0.05834362 -0.0011538549 0.18341592 -0.072977506 -0.110599406 0.06583901 0.009376488
0.14897634 -0.09371317 -0.029499028 0.023138016 0.0626041 -0.027740993 0.07219337 -0.07796431
-0.051253058 0.10682853 -0.14014085 -0.028416231 0.13875017 -0.09628742 -0.08409144 -0.05494785
-0.13811874 -0.12728858 0.1115941 0.18938825 -0.027362289 0.043562226 0.19676223 -0.035995077
-0.02437202 -0.09598759 0.0373994 -0.13423778 -0.030649722 0.004552678 0.05692618 -0.09487539
0.059476294 0.063668795 0.11950185 -0.05905457 -0.031594932 -0.055264525 -0.16536824 0.059394374
0.0220031 -0.001631114 -0.11120789 -0.08318226 0.18255073 0.12282465 0.14794244 -0.110977896
-0.072359376 -0.07721403 -0.07992296 0.051690083 0.012075045 0.10725136 0.06851568 0.020278616
-0.02301256 0.008460883 0.010294297 -0.040242117 0.08224089 0.033585515 0.12751347 -0.076320484
-0.10613855 0.05875519 -0.011299011 -0.11426293 0.10673129 -0.06293278 0.014026552 -0.1052846
-0.0443146 -0.13561906 0.1323528 0.16183509 -0.07623085 -0.075425275 -0.028247114 -0.13100734
0.09171906 -0.057931572 0.05778488 -0.0025120254 -0.03767796 -0.094328515 0.049473114 0.056165576
-0.12768191 0.023450715 -0.09612834 0.08416877 0.16771056 0.022994762 -0.019197563 0.0048109
00000000: 6729 50bd 09eb e0bd 482f 40bc e69f 95bd
00000010: aa77 d0bd 2b0b 6cbd 917b 51bd 215f 0a3e
00000020: 895d 93bc 7fe7 b0bd 01bd e9bd 2478 b7bd
00000030: 8309 ebbd 657f fcbd 5676 3a3d 0f65 d3bc
00000040: 0c25 f93d 808b 123b 9517 053d e233 dc3d
00000050: b14a b73d ff73 593d f9d1 b13c e3b6 0d3d
00000060: 172a 59bd 1677 9d3d a532 e33d 2472 b6bc
00000070: 285b 46bd bd5c 4d3d d214 583d 8517 f7bd
00000080: 42ff e8bd 1883 11be 493a 04bc 89d0 7b3c
00000090: 5dbe 00be 4e39 38bc 9210 19bd ec5b b4bd
000000a0: ab0e 7c3d 3d6e da3d d566 333d 5e8a dcbd
000000b0: 6cc5 a3bb dbfd 983d bf8b b0bd 1097 a23c
000000c0: 18c0 f43d 2f2f c13d 55dc b8bd 4c64 d2bd
000000d0: 9c5e 153d 90af 033d 5ce9 82bc 6089 d43d
000000e0: bedd 133e ea67 753d 795c 343d 1687 3a3b
000000f0: 3f52 cebd 29ff 033e 0fb8 d1bc 5081 d3bd
00000100: f4bc 09bd 85fd 903d 38a9 053e 7839 3ebd
00000110: d98f 903d c4e8 87bd e943 c5bd ede4 e23d
00000120: 16d4 08be 302b ad3d ac31 0bbd 19f1 103e
00000130: ec19 173e ad84 f73d 1268 be3d f907 98bd
00000140: 302e 5fbd 3547 ae3d 7056 0fbe ada4 c83c
00000150: 1fa2 9d3d 0507 343d 7725 e53b 4147 963d
00000160: bcdb f1bd ce63 063e 4169 eaba ecf0 8c3d
00000170: a18c 40be 4df2 13be 31b7 f73d d371 3ebd
00000180: 0b00 5e3d 505c f63d a9fa d9bd 4cb4 0bbe
00000190: e439 d23d c643 b03d fdfc 00be 0937 e4bc
000001a0: 6ff7 cabd 995a bbbd 814b 813d 0653 353e
000001b0: 0d47 c2bd 4d2c 633b 17be fa3d ceb4 f8bd
000001c0: dfb8 ef3d a979 36bb 6847 25bd f61d 1c3d
000001d0: 6d4c 26bd 6fe6 993d aa35 d7bd 573f 6cbd
000001e0: 4ad2 0bbe 01eb d7bd 78b5 4f3d 2d09 10be
000001f0: c11d b6bd 72f8 e6bd 6520 0b3e 56fc f7bc
00000200: 9527 e1bd 9730 e83d bdc4 bb3d 3eb3 83bd
00000210: 0443 883d 2532 d9bd 172c 413e 0425 4f3d
00000220: 47b5 babd c867 c13c a43a d8bd 99db 92bd
00000230: ef9b fabd 6d92 e93b ffc2 f9bd 7669 87bd
00000240: ef19 08be f176 5f3d c8f7 753d 6074 dabd
00000250: 8f1b a03d 51d0 b33d 2191 073e 8367 b7bd
00000260: 87ec ffbc b8f9 6ebd f23c 97ba 62d1 3b3e
00000270: 3b75 95bd f181 e2bd 9ad6 863d d79f 193c
00000280: 418d 183e b1ec bfbd f2a7 f1bc f08b bd3c
00000290: 9436 803d 1441 e3bc 1eda 933d c1ab 9fbd
000002a0: baee 51bd ebc8 da3d 1581 0fbe 28c9 e8bc
000002b0: 8614 0e3e 5732 c5bd 2238 acbd ff10 61bd
000002c0: 006f 0dbe f057 02be 738b e43d feee 413e
000002d0: e126 e0bc 4e6e 323d 0a7c 493e 936f 13bd
000002e0: d5a7 c7bc 2495 c4bd 1d30 193d a175 09be
000002f0: 2015 fbbc a22e 953b 6d2b 693d 074e c2bd
00000300: 6a9d 733d c964 823d 63bd f43d 34e3 71bd
00000310: b069 01bd 0e5d 62bd 4b56 29be 8447 733d
00000320: d83f b43c 1bcb d5ba f6c0 e3bd 765b aabd
00000330: 94ee 3a3e 7d8b fb3d 397e 173e 6148 e3bd
00000340: 2731 94bd 6422 9ebd a6ae a3bd fbb8 533d
00000350: 69d6 453c 9aa6 db3d f351 8c3d 571f a63c
00000360: d684 bcbc 849f 0a3c 69a9 283c ebd4 24bd
00000370: e96d a83d f790 093d e492 023e ea4d 9cbd
00000380: 2b5f d9bd 48a9 703d 7d1f 39bc af02 eabd
00000390: ef95 da3d e7e2 80bd a0cf 653c 749f d7bd
000003a0: 3a83 35bd b9df 0abe 7e87 073e 19b8 253e
000003b0: eb1e 9cbd 9178 9abd 7e66 e7bc ca26 06be
000003c0: 34d7 bb3d a849 6dbd d7af 6c3d cba0 24bb
000003d0: 3454 1abd 4f2f c1bd 52a4 4a3d e00d 663d
000003e0: 0cbf 02be b71b c03c efde c4bd ad60 ac3d
000003f0: 51bc 2b3e 835f bc3c 3544 9dbc c1a4 9d3b

linear_relu_stack.8.bias f4 [10]
-0.13397047 -0.08819903 -0.09376877 0.11267127 0.09196521 -0.07526261 0.11042663 0.081300944
0.02989806 -0.012277309
00000000: 8e2f 09be b1a1 b4bd d709 c0bd 32c0 e63d
00000010: 4258 bc3d 4923 9abd 5b27 e23d 1c81 a63d
00000020: c7ec f43c c426 49bc
